…
ype': 4, 'use_activation': True}, 'train': {'batch_size': 20, 'max_epoch': 30, 'max_len': 40, 'curriculum': 1, 'start_len': 25, 'increment': 5, 'patience': 10, 'clip': 3, 'em': False, 'em_epoch': 1, 'st': False, 'eval_test': True}, 'test': {'batch_size': 16, 'max_tokens': 100, 'bucket': 32, 'decode': 'mbr', 'sampler': 'batch'}, 'optimizer': {'name': 'adam', 'lr': 0.002, 'mu': 0.75, 'nu': 0.999}, 'conf': 'config/lcfrs_tiger5.yaml'}
2022-11-08 00:04:07,131 - INFO - Create the model
2022-11-08 00:04:07,132 - INFO - NeuralLCFRS_rankspace_full2(
  (activate): ReLU()
  (term_mlp): Sequential(
    (0): Linear(in_features=512, out_features=512, bias=True)
    (1): ResLayer(
      (linear): Sequential(
        (0): Linear(in_features=512, out_features=512, bias=True)
        (1): ReLU()
        (2): Linear(in_features=512, out_features=512, bias=True)
        (3): ReLU()
      )
    )
    (2): ResLayer(
      (linear): Sequential(
        (0): Linear(in_features=512, out_features=512, bias=True)
        (1): ReLU()
        (2): Linear(in_features=512, out_features=512, bias=True)
        (3): ReLU()
      )
    )
    (3): ResLayer(
      (linear): Sequential(
        (0): Linear(in_features=512, out_features=512, bias=True)
        (1): ReLU()
        (2): Linear(in_features=512, out_features=512, bias=True)
        (3): ReLU()
      )
    )
  )
  (root_mlp): Sequential(
    (0): Linear(in_features=512, out_features=512, bias=True)
    (1): ResLayer(
      (linear): Sequential(
        (0): Linear(in_features=512, out_features=512, bias=True)
        (1): ReLU()
        (2): Linear(in_features=512, out_features=512, bias=True)
        (3): ReLU()
      )
    )
    (2): ResLayer(
      (linear): Sequential(
        (0): Linear(in_features=512, out_features=512, bias=True)
        (1): ReLU()
        (2): Linear(in_features=512, out_features=512, bias=True)
        (3): ReLU()
      )
    )
    (3): Linear(in_features=512, out_features=1500, bias=True)
  )
  (decision): Sequential(
    (0): ResLayer(
      (linear): Sequential(
        (0): Linear(in_features=512, out_features=512, bias=True)
        (1): ReLU()
        (2): Linear(in_features=512, out_features=512, bias=True)
        (3): ReLU()
      )
    )
    (1): Linear(in_features=512, out_features=4, bias=True)
  )
  (left_c): Sequential(
    (0): Linear(in_features=512, out_features=512, bias=True)
    (1): ReLU()
  )
  (left_d): Sequential(
    (0): Linear(in_features=512, out_features=512, bias=True)
    (1): ReLU()
  )
  (right_c): Sequential(
    (0): Linear(in_features=512, out_features=512, bias=True)
    (1): ReLU()
  )
  (right_d): Sequential(
    (0): Linear(in_features=512, out_features=512, bias=True)
    (1): ReLU()
  )
  (parent_c): Sequential(
    (0): Linear(in_features=512, out_features=512, bias=True)
    (1): ReLU()
  )
  (parent_d): Sequential(
    (0): Linear(in_features=512, out_features=512, bias=True)
    (1): ReLU()
  )
  (cd_mlp): Sequential(
    (0): Linear(in_features=512, out_features=512, bias=True)
    (1): ReLU()
  )
  (cc_mlp): Sequential(
    (0): Linear(in_features=512, out_features=512, bias=True)
    (1): ReLU()
  )
)

2022-11-08 00:04:07,132 - INFO - Adam (
Parameter Group 0
    amsgrad: False
    betas: (0.75, 0.999)
    capturable: False
    eps: 1e-08
    foreach: None
    lr: 0.002
    maximize: False
    weight_decay: 0
)
2022-11-08 00:04:07,132 - INFO - {'device': 'cuda', 'save_dir': 'log/lcfrs_tiger5/LCFRS_rank_full22022-11-08-00_04_02'
…
